quick-draw-app-master/app/src/main/assets/model.tflite (tflite, 442812 bytes, 10 tensors)

conv2d/Conv2D_bias f4 [16]
00000000: 8df9 07bb b489 3dbd bbed 9ebd cd06 4dbd
00000010: f7df 0fbe 8bf7 e1bd 0014 ca3d cf94 debd
00000020: d495 f3bc ee6f 973d e013 bebc 53b8 cd3b
00000030: 8b31 80bd 376a f0bd 4fa7 96bc 0428 80bd
-0.002074811 -0.046273902 -0.07760187 -0.050055314 -0.1405028 -0.11033543 0.09867096 -0.10868227
-0.02973453 0.07394396 -0.023202837 0.0062780767 -0.062594496 -0.11739009 -0.018390326 -0.062576324

conv2d/kernel f4 [1, 3, 3, 16]
00000000: eab9 2abe 4db2 83be 0dda 183e d645 ebbe
00000010: 20b8 983d c827 14be d5ff 593e a03b 6e3e
00000020: 4aad 363e 8094 c43b 3ed3 d7bc a209 0cbe
00000030: 953e 813c c2c6 243b 399a 473e 8ba0 a1bd
00000040: ab9d bd3e f66f d1be ba02 9dbd 9682 ee3d
00000050: 76a4 2cbe dbfb 5cbd 72db a0bd d8c0 203e
00000060: 3a78 a53e 6ac8 3cbe 895f 10be 6221 11bc
00000070: 3063 b13e c656 3b3e 1573 353e 9e65 ed3d
00000080: 4375 ebbd ab8d e4bc dd89 60be 6582 c93e
00000090: e40e 803e f8fa b33e d686 12be fe8a 07be
000000a0: f43d 8a3e fc8b 25be bb23 f2bd 6991 c6bd
000000b0: 724e c7bb a8db e03d 8f93 c23a 8c0d 333e
000000c0: f9d7 c3be a8d0 573e 8ce9 a53e 0f05 383d
000000d0: 298e 38be 0bec 893d ff9e 993e d13f ff3d
000000e0: b445 a7be 142d dfbd 3863 453e 300a 7f3d
000000f0: 54dd 89bd 91bc 6f3d 1b9d 4e3e b55a 83be
00000100: b996 323e 4f21 453e 49af 803e 7204 c73e
00000110: 3b58 8d3e d8b7 a63e 2ce0 19be 495e aa3e
00000120: f82e b3be aa59 4cbe f245 893e 2e43 acbe
00000130: 9ea8 9f3e eb03 8c3e 7215 023e 99f2 e03d
00000140: 178a 8d3e 45b4 d9bd 3d84 44be bda5 ecbd
00000150: b625 d73d 47b2 de3d 3591 59be 5095 493b
00000160: 45cf bfbd eff2 e5bd b6c7 823e a56b 38be
00000170: db6b 393e 67dd 803e 304d 51be 97a9 883e
00000180: b203 b6be 3a90 1c3e f6cd 1f3e 4534 d13e
00000190: 034e 3f3e 62ad 293e 4a82 883e 485d 3e3e
000001a0: 0a25 0c3e 6cb9 a53e afd4 513d a194 003e
000001b0: b886 e0bd dbe3 563e bc59 863e 6789 a33d
000001c0: f7c4 843b d9f8 6c3e b033 783e a2e3 dcbd
000001d0: 417f f53d 6a34 4a3e 92cf 8fbe 0f5c ca3d
000001e0: 67ed 243e 3608 aa3e 4700 5cbd 751e b73e
000001f0: e793 e1bc 5ef3 41be 2673 c83d 0c8e 583e
00000200: 3752 763e f617 453e 9400 b03e def9 e3be
00000210: 610e 1bbd 6763 ff3d 9e8d 09bc f6d6 8f3e
00000220: 2496 e33c f704 143e 97b9 ffbd 81d7 8f3e
00000230: 0d0c 9f3e a37f 26be ba56 aabe 9a39 8f3e
-0.16672483 -0.2572197 0.1492693 -0.45951718 0.07456994 -0.144683 0.21288998 0.23264933
0.17839542 0.005999148 -0.026345845 -0.1367555 0.015776912 0.0025142883 0.19492425 -0.07891949
0.37034354 -0.40905732 -0.07666536 0.11646001 -0.16859612 -0.053951126 -0.07854356 0.15698564
0.32318288 -0.18435827 -0.14098944 -0.008858057 0.34645987 0.1829482 0.17719682 0.115916476
-0.11496975 -0.027899584 -0.2192759 0.39357296 0.2501136 0.3515241 -0.14309248 -0.13236615
0.2700039 -0.16166681 -0.11823221 -0.096957035 -0.0060823495 0.10979396 0.0014845001 0.17485636
-0.38250712 0.2107569 0.32404745 0.0449267 -0.1802298 0.06734475 0.30004117 0.12463344
-0.32670367 -0.1089727 0.1927613 0.062265575 -0.06731668 0.05852944 0.20177118 -0.2565514
0.17440309 0.19250987 0.25133732 0.3887058 0.27606377 0.32562137 -0.15026921 0.3327506
-0.34996772 -0.19956079 0.26811177 -0.33645004 0.31183332 0.2734674 0.12703493 0.10983772
0.27644417 -0.10630087 -0.1919107 -0.115550496 0.1050524 0.108738475 -0.21246798 0.0030759163
-0.093657054 -0.112279765 0.25542992 -0.18009813 0.1810755 0.25168917 -0.20439601 0.26691887
-0.35549694 0.15289393 0.15605912 0.4086019 0.18682103 0.16570047 0.26661903 0.18590271
0.13686004 0.32368028 0.05122822 0.12556697 -0.109631956 0.20985357 0.26240337 0.07985192
0.0040518004 0.23141803 0.24238467 -0.10785605 0.119871624 0.19746557 -0.2808805 0.0988084
0.16106187 0.3320939 -0.053711202 0.35765424 -0.027536346 -0.18940493 0.09787588 0.21147937
0.240548 0.19247422 0.3437544 -0.4452657 -0.03785551 0.12470131 -0.008395581 0.2809369
0.027781554 0.14455019 -0.1248657 0.28094104 0.31063882 -0.16259627 -0.33269292 0.27973634

conv2d_1/Conv2D_bias f4 [32]
00000000: fe87 06be 6f0f ebbc e957 113e a163 20bd
00000010: 25e8 a73c 277b 61bd a758 b9bd 2807 f53d
00000020: 20f2 23be e158 15be 02ec f0bd 7b00 323d
00000030: d865 7ebd a978 c8bc f192 3ebd e336 87bd
00000040: aa8b d3bd 53b5 9bba 604a 45be d089 2dbd
00000050: 4b5c 92bd dd36 83bd b211 563d a13f 2cbe
00000060: e41a 7abd e18b a1bd c69b 38bd 4a86 20be
00000070: 4fb5 4fbc 7947 d73c ee90 0ebe 632d 00be
-0.13137814 -0.028693883 0.14193691 -0.039157514 0.020496437 -0.055049088 -0.09050112 0.119642556
-0.16010332 -0.14584686 -0.11763765 0.04345749 -0.062108845 -0.024471598 -0.046526853 -0.06602266
-0.10329373 -0.00118796 -0.19266653 -0.042367756 -0.0714651 -0.06406949 0.05226297 -0.16821148
-0.0610608 -0.07888008 -0.045070432 -0.15676227 -0.012677505 0.026279198 -0.13922474 -0.12517314

conv2d_1/kernel f4 [32, 3, 3, 16]
00000000: 3356 c3bd 9818 a63d ff14 f43d efed f0bd
00000010: c440 8fbd f2ce ab3c c890 95be 6812 a6bd
00000020: 308e b3bd 9df2 083d 065d 8e3d 6694 2a3e
00000030: e899 0dbe 830b 143d fafa 2bbe 770b bebd
00000040: 9733 bdbc e858 283e cb09 cabd eadb 893d
00000050: 93fc 793b 943c 77bb f57f 59be 09d6 abbd
00000060: 2ec6 b23c 7f8e adbd 7e92 8fbd e15d 523d
00000070: dcdd 95bd e0ee 9bbd f9d7 20be 3d0c bc3d
00000080: b6ee babd 6075 f13d aa6c 0d3d 9b7b c23d
00000090: d431 2fbd 011f 863c aa47 7fbd 1e0e ce3d
000000a0: 01a2 2abe b71d efbd c2c8 71bd 61cf e6bd
000000b0: ddc5 5b3d 16c8 c33d a123 463d d1d8 ab3d
000000c0: 5757 30be d3a2 90bd 2938 11be f395 113e
000000d0: ee3f 103e fb48 493d 7fd4 99be 5aa5 cebd
000000e0: 3eca 9abc b90f 5cbd 508f ac3d 31d2 c63d
000000f0: 0c57 0d3d c533 593c 5b79 7abc 37f4 0b3e
00000100: 01a7 fabd 0874 8abd a680 ac3d a612 bc3c
00000110: b47b 3e3e a4a1 533d 39c6 bebd f1ca 2a3d
00000120: 5a3c 253d 3ad0 eabd 6ab9 673c c38b 20be
00000130: 6e4e d63c 9db3 b63d fce2 fe3d c0d5 9e3d
00000140: 24b0 393d 15d6 573d 4571 083e 7c86 2d3d
00000150: 35f0 1abd 3473 7d3d 12cb 82bd fd9f 013e
00000160: 782e 39be ac68 41be 8c2f 833d 3009 6cbe
00000170: 5054 093e 3fd9 193e 35fa d83d df86 cc3d
00000180: 91c1 b43c 4a2c 9fbd fcfc 9a3b f644 0c3e
00000190: 8614 fe3d ce36 393d a52e f9bd 8715 2fbc
000001a0: c56d 2c3d e1aa 5abe e02a a1ba 053d a93d
000001b0: fc3b b6bc b1d6 f93d 7f5c 2dbd 174a cd3d
000001c0: c7a3 e23d a4b4 ccbb 0a4e 423d 09b3 3d3e
000001d0: 549a 473d 53c6 373e 7a99 d1bc ea1c 2e3d
000001e0: 456a 0fbe b6da 44be 225c d23d c664 b23c
000001f0: 0106 113e 7e23 c23d c3c8 c23b 2f75 703c
00000200: 1916 2c3e e637 943d e6c4 d23d 5174 543d
00000210: 2f44 643e 71e5 383e b639 85bd f3c6 ab3c
00000220: 282f 0fbe 0c9f c3ba 8438 a6bd c63f ebbc
00000230: e713 513d f011 763d 05b0 dc3c 2de7 5e3e
00000240: a904 12bd 276a c2bd ce01 af3c 399d 523e
00000250: 1c29 e7bc 02eb 9bbd 73da 96bd 328c a2bd
00000260: f104 1ebd cd69 17be 6956 26be 4906 0cbe
00000270: 2ba7 0e3c 4f5d 833d f272 50bc 0faa f53c
00000280: 0718 513e 4427 69bc c5cb 5fbd 61ec 8f3b
00000290: 5b32 913d 3b3e ec3c 669c 95bd 2f74 d33d
000002a0: 8266 613d 5d87 7a3d 9846 05be 7563 d33d
000002b0: 128b 0e3d 867c 75bd 34c7 c9bd 516b 43bd
000002c0: 02fc 623d 706e 493d 5a7d c03d ddc3 793e
000002d0: 832b 093d df8d b63d 4828 4e3e 387c 003a
000002e0: 93e4 6dbd 67cd 4f3d 0783 9cbd 2a69 84bc
000002f0: 810f db3b cffb f83c c2ba 823d 4005 a9bd
00000300: 068c d63c 5c6f 763a ca77 d3bd 12fb 3ebc
00000310: fd92 ecbd 4d87 5b3d 193f 12bc a78f 44be
00000320: 700f a7bd 771b cd3d afe5 07be 3c7e 243e
00000330: 4006 edbc d8cc 243c 5741 70be e141 98bc
00000340: 473d 803d 3fa4 b03d 320b 2c3d 12bb 293e
00000350: c6b9 b03d 9880 053e c383 3a3d 7bd6 0abe
00000360: 644e fc3c fae0 f2bd 18e0 0dbd 8a0a 67bd
00000370: eca8 b83d e880 8d3d 19cb 11bc 1f0a 003c
00000380: ed8b 863e 3770 d03d d4f6 963c c4f8 1dbd
00000390: 0196 2c3d 7771 dc3c 7785 0c3e c164 c73c
000003a0: 02f2 8abb 845e fabd 34d0 10be ed18 e4bc
000003b0: 69b8 633d 1e63 133d 1f83 a8bd 3d75 213d
000003c0: f408 82bd 0236 e93d d19d da3c 27fe 283e
000003d0: d3e4 043d 006a ec3d ad83 6abd 9bde 253d
000003e0: ff06 9cbd c84e 5c3d 8801 2f3d 4a02 5d3e
000003f0: 5e0d b13d 5941 76bc b0f0 523d 64c1 6c3d
-0.095379256 0.0811016 0.11918067 -0.11764132 -0.06994775 0.020972703 -0.29212022 -0.081089795
-0.087673545 0.0334345 0.069513366 0.16658172 -0.13828242 0.03614379 -0.16794959 -0.092795305
-0.023095889 0.16440165 -0.09865149 0.067313984 0.003814493 -0.0037725316 -0.21240218 -0.08390433
0.021823015 -0.084744446 -0.07010363 0.05135906 -0.07317707 -0.07613921 -0.15707387 0.09182022
-0.09127562 0.11789966 0.03452746 0.09496232 -0.04277213 0.016372206 -0.062324204 0.100612864
-0.16663362 -0.116755895 -0.05902935 -0.11270023 0.053655494 0.09559648 0.048373822 0.08390964
-0.17220818 -0.07062306 -0.1418158 0.14217357 0.14086887 0.049141865 -0.30044934 -0.10090132
-0.018895265 -0.05372593 0.08425772 0.097080596 0.034506842 0.013256972 -0.015287722 0.1366738
-0.12238885 -0.067604125 0.08422975 0.022958111 0.18601876 0.051667824 -0.09315152 0.041697446
0.04034076 -0.11465497 0.014143327 -0.15678315 0.026160445 0.08920977 0.124456376 0.07755613
0.045333996 0.0526944 0.13324459 0.042364582 -0.037826736 0.061877444 -0.06386389 0.12658687
-0.18084133 -0.18887585 0.06405553 -0.2305038 0.13411069 0.15024279 0.10594598 0.09986662
0.022064956 -0.07772119 0.004729865 0.13698182 0.12406258 0.04521828 -0.121671 -0.010686285
0.042096872 -0.21354248 -0.0012296103 0.08263592 -0.0222454 0.12199152 -0.04232454 0.10023897
0.11066394 -0.00624712 0.047437705 0.18525328 0.048731163 0.17946748 -0.025585879 0.042508043
-0.14005382 -0.19224057 0.10271479 0.021776568 0.14162447 0.09479426 0.005944343 0.014676376
0.16805305 0.07237224 0.10291462 0.05186874 0.22291635 0.18056275 -0.06505148 0.02096889
-0.13982832 -0.0014924719 -0.08116248 -0.028716933 0.05104437 0.0600757 0.026939401 0.21767874
-0.035648976 -0.09492903 0.021363165 0.20567788 -0.028217845 -0.076131836 -0.07365885 -0.079368964
-0.03857893 -0.14786454 -0.162439 -0.13674273 0.008706848 0.064142816 -0.012722718 0.029988317
0.20419322 -0.014230553 -0.05463769 0.0043921922 0.07089683 0.028838268 -0.07305221 0.10324895
0.0550294 0.06116425 -0.1301521 0.10321704 0.034800597 -0.059933208 -0.09852448 -0.047709767
0.055416115 0.049177587 0.09398909 0.24391122 0.03348876 0.089137785 0.20132554 0.00049013225
-0.058079313 0.050732996 -0.07642179 -0.016163427 0.006685198 0.03039351 0.063832775 -0.082529545
0.026189815 0.0009400749 -0.10325582 -0.0116565395 -0.11551473 0.05359583 -0.0089261765 -0.19195424
-0.08157241 0.10015004 -0.13271211 0.1606378 -0.028933644 0.010058604 -0.23462425 -0.018586101
0.06261688 0.086250775 0.042002864 0.16575268 0.086291835 0.13037336 0.045535814 -0.1355838
0.030799098 -0.11859317 -0.03463754 -0.056406535 0.09016594 0.069093525 -0.00889852 0.007814913
0.2627863 0.10177653 0.018428244 -0.03856732 0.042135242 0.026909573 0.13722788 0.024340035
-0.0042402754 -0.12225059 -0.14141923 -0.027843917 0.05559579 0.035983197 -0.08228134 0.039418448
-0.06349364 0.11387254 0.02668658 0.16503201 0.032444786 0.115436554 -0.057254482 0.040495496
-0.07618522 0.05378607 0.04272607 0.21582904 0.08645128 -0.0150302285 0.05149907 0.05780162

conv2d_2/Conv2D_bias f4 [64]
00000000: 6fb7 57bd 503f d4bd c6bb 02be 4ec5 83bd
00000010: 7d49 a6bd 3b4d c0bd ad99 d1bd 9c54 72bd
00000020: e1e3 aabd c4ca e43d b9bb e1bd 9ba5 88bd
00000030: ba60 eebc 9da4 21bd 64dd f73d e037 4dbd
00000040: 74b8 37bc 8f37 2c3d 1414 0c3d 03a5 d6bd
00000050: c88b 1cbd 0122 01bd d1ec 4cbd 5eab 803b
00000060: e2d1 babd d3d5 973c b597 75bc 69c2 77bd
00000070: 4b91 54bd f95e d2bd 5037 15be b471 debd
00000080: 6ef5 823d 4afb bfbd 212f d8bb d7f1 e9bd
00000090: 1c55 8ebd d40c 90bd d363 a5bd feca f4bc
000000a0: 3861 e83b 53b9 4dbc d50f 163d cc8e 93bd
000000b0: 8e99 5b3c effe 233d d621 703b f105 a3bd
000000c0: 8ece 4fbd 49b5 45bd f90a 2bbd 1c00 9bbd
000000d0: 3b9c d1bd c98f 98bd 4f8c c6bd 83a4 1fbe
000000e0: 149f aabc a8bc fcbd 9f46 08bd adad bfbd
000000f0: 3b27 c0bd 6856 09be fe6a 06bd f774 dbbd
-0.05266517 -0.103636384 -0.12766942 -0.06434117 -0.081194855 -0.093897305 -0.102343895 -0.05916272
-0.08344246 0.11171487 -0.110221334 -0.06672212 -0.029098857 -0.039463628 0.12102774 -0.050102115
-0.011213411 0.042045172 0.034198835 -0.10480692 -0.038219243 -0.03152657 -0.050030533 0.0039266786
-0.09122063 0.018534577 -0.014989783 -0.06048814 -0.051896375 -0.10272021 -0.14571881 -0.10861531
0.06394468 -0.093741015 -0.006597415 -0.114230804 -0.06949827 -0.07033697 -0.080756806 -0.02988195
0.0070916675 -0.012556392 0.036636192 -0.07204971 0.0134033095 0.040038045 0.0036641262 -0.079601176
-0.050734095 -0.04826859 -0.04175851 -0.0756838 -0.10234877 -0.074493 -0.096947305 -0.155901
-0.020827807 -0.12340671 -0.033270475 -0.09359298 -0.093824826 -0.13411868 -0.03281688 -0.10715669

conv2d_2/kernel f4 [64, 3, 3, 32]
00000000: dea8 7abc 226d 8ebd 9c56 30be 9686 c23d
00000010: d302 553d 569c bbbd fcb4 f83d 08a4 38bd
00000020: 4c91 75bd 1ed5 34bd d727 90bd 4045 f13a
00000030: fe62 01be 6fc9 dfbd 95fb 61bc 7f92 183c
00000040: 0d12 9fbb a0a8 963d fec6 19bd 2291 f23d
00000050: 0a45 16be ee24 f23c dd4c 253d 036d 1dbc
00000060: c5ac 813d 3626 403d 3feb e53d 77ad 97bd
00000070: f1e4 a0bd d9ee 4f3a 8d53 43bd a583 f83c
00000080: feb4 3d3d 7b18 cfbd 9073 fe3b 2ad8 9bbd
00000090: 5a62 713c be33 cbbd 9b0d 5c3c d41d 77bd
000000a0: c1cd 593d eafa c6bd 1290 90bd 5f9f b6bd
000000b0: 42de c9bd 6a55 bcbd 57fc a03d e3e5 c13d
000000c0: 4f45 2fbd b662 a13d 8139 2f3d 059c 093e
000000d0: 46d0 ddbd 8c6e 2ebc f070 343e d508 f2bd
000000e0: d5d9 933d 2d95 18bd 4475 0e3d a361 7fbd
000000f0: c38c 9ebc d7f4 8f3d 8043 1abd 1229 85bc
00000100: 2012 8c3b 7d98 2c3d bda4 8f3c 39b7 ae3d
00000110: 747a 4cbc 76e7 05ba 1891 313d 55e0 c5bd
00000120: 7e13 5c3d 9f48 7abc 1477 34bd 383d 9a3c
00000130: 66e1 a93c a7e6 043d 4570 ba3a 113c 86bc
00000140: 11d6 f23d fdbc 5abd 1b9e 4d3c 1007 a7bb
00000150: a642 74bd b6db 0c3e c472 4b3d b47f cebb
00000160: 6f55 69bd 95a9 e1bd bb6f de3c 732c 9abd
00000170: 0175 433b a05b 63bc f3e8 603c 4db5 32bd
00000180: 06d3 44bd 050d c7bd 1ba2 ffbd 1ae4 3abd
00000190: b101 3d3d 3956 e1bd fbb1 193d fc86 50bb
000001a0: bfe8 c53c 6eff dfbd efd8 323d 990e 22bd
000001b0: 94fd acbd 4e09 bdbd 7a4f 40bd 7545 aa39
000001c0: 02b3 4d3b 0c67 de3d 03a6 313d 99a9 ee3c
000001d0: 5912 9fbd b577 0a3d 1eac 953d 0854 7cbd
000001e0: 5e47 083e 06dc 64bd 1422 a43c 3515 8dbd
000001f0: a25b 963c de0f 24bd 98cb e03d 6be1 c93d
00000200: 70ea a5bc bfae 12be 4bc4 18ba a0b2 7ebd
00000210: d01b 013e e354 01be 618f dbbc 9da8 51bc
00000220: 8dee 46bb 34a9 443d b750 18bd e277 0bbe
00000230: f001 9e3c fa3d 8dbd 7e58 e7bc 2fb5 6b3d
00000240: efa7 bfbd f5bd 343e fd26 d53d 969b 803d
00000250: 3bef 16be a6f1 8aba 9918 903d 45b4 a3bc
00000260: 4915 c23d c3c5 e73c 718d d8bd e2be 18bc
00000270: cc1e 4c38 ad24 a13d 13c5 933d 7559 8d3d
00000280: 669a 6b3d 2343 503d 95f8 c6bd c4ab 99bd
00000290: fe42 33bd 1bdc b3bd 6bc6 663d 28bb f9bc
000002a0: 27f2 883d 4d51 82bb 6c66 593b 7d4b 81bc
000002b0: a7b2 8abd b7df 343d 9b24 4dbd ba42 d1bc
000002c0: 32dc 933c e7b2 0c3d ae24 3abd 7aad 343d
000002d0: 35a1 a5bd 4cd5 6dbd 6510 95bb 8cf6 243d
000002e0: 3f1e eb3b d3de 2dbd ba1c 8c3c 08ae 82bd
000002f0: d4a5 a53d 2cb1 52bc d69f 103a 7126 da3b
00000300: f6b8 6e3d 9046 adbb 363c 083d 3de6 15bd
00000310: d8f3 193e 396c a9bd 63a6 bfbb 0e3a 94bd
00000320: 0db0 f73c 4c4a 0b3e d9df 9dbc c1a1 0ebd
00000330: e5f0 b83d 051f 3d3c 1628 84bd 542d e63c
00000340: 6568 ffbc aeb0 8c3c c669 753d 9945 50bc
00000350: c457 08be f674 e8bc c7a3 943c 2878 3b3c
00000360: e88a e23d 5c2e a43d 285e 89bb 050c dbbc
00000370: 4083 97bd 4336 9d3d 719b a13d ce65 5d3d
00000380: 29d3 d23d 7bef e9bd 4396 d33c 8d5d 77bc
00000390: 2443 0ebc cd5d 3ebd b888 fe3c 81fb b0bd
000003a0: eb45 55bd 8c23 d63d 1913 1e3d e326 d1bc
000003b0: 4498 4c3d 5d92 823c db70 833c bebf 213d
000003c0: afe9 773d c6d3 e2bc 89cc db3c 096a ddbb
000003d0: f36f 79bd 3582 65bd 5075 8f3d 5005 653d
000003e0: f9c2 463c a1cd 2a3d 45bd 22bd 23d7 673d
000003f0: 90b9 b1bd e4e2 a63d 3d25 c9bb e2ba 933d
-0.01529905 -0.06954409 -0.17220539 0.094983265 0.052004647 -0.09160678 0.12143895 -0.045078307
-0.05995302 -0.044148557 -0.07038849 0.0018407479 -0.12635419 -0.10927092 -0.013792892 0.009312271
-0.0048544467 0.073563814 -0.03754329 0.11844088 -0.14674774 0.029558625 0.040356506 -0.00960851
0.06331781 0.04691144 0.1122651 -0.07406133 -0.07856167 0.00079320144 -0.047687102 0.03033621
0.046315186 -0.10112091 0.007765241 -0.076095894 0.0147329215 -0.099219784 0.013430978 -0.06033118
0.053174738 -0.09715827 -0.07058729 -0.089171164 -0.098568454 -0.09195979 0.0786063 0.094676755
-0.042790707 0.07880156 0.04277945 0.13438423 -0.10830741 -0.010646474 0.17621207 -0.11818091
0.072192825 -0.03725164 0.034779802 -0.062348973 -0.01935423 0.07029121 -0.03766203 -0.016254935
0.0042746216 0.04213761 0.017534608 0.08531041 -0.012480367 -0.0005108038 0.043351263 -0.096619286
0.053729527 -0.015276103 -0.044058874 0.01882802 0.020737361 0.03244653 0.0014224133 -0.016386064
0.11857236 -0.05340289 0.012549902 -0.0050972775 -0.059633873 0.13755688 0.049669996 -0.0063018445
-0.05696624 -0.11018673 0.027152887 -0.07528009 0.0029824378 -0.013876826 0.013727414 -0.043629933
-0.04805281 -0.0971928 -0.12482091 -0.04562769 0.04614419 -0.11002774 0.03752325 -0.0031818738
0.024158834 -0.10937391 0.043663915 -0.039564703 -0.08446804 -0.0923029 -0.046950795 0.00032476676
0.0031387215 0.108594984 0.04337121 0.029133605 -0.077671714 0.033805568 0.073082194 -0.061603576
0.13308474 -0.055873893 0.020035781 -0.068888105 0.01835424 -0.040054195 0.109763324 0.09857448
-0.02025339 -0.14324473 -0.000582759 -0.06218207 0.12608266 -0.12630038 -0.026801767 -0.012796548
-0.003035459 0.048012927 -0.03718635 -0.1361995 0.019288033 -0.06896587 -0.028240439 0.057545837
-0.09358203 0.17650588 0.10407827 0.06279676 -0.14739697 -0.0010600581 0.07035942 -0.01998342
0.09476716 0.028292542 -0.10573853 -0.009322854 4.8666072e-05 0.078683235 0.07215323 0.06901828
0.057520293 0.050845277 -0.09715382 -0.07503465 -0.04376506 -0.08782216 0.05634157 -0.03048475
0.06686812 -0.003976977 0.003317262 -0.015783066 -0.067723565 0.044158664 -0.050083738 -0.025544513
0.018049333 0.034350302 -0.045445137 0.044110753 -0.080873884 -0.058064744 -0.0045490735 0.040274188
0.0071752365 -0.04244883 0.017103542 -0.0638085 0.0808827 -0.012859624 0.00055169815 0.0066574146
0.05828186 -0.0052879527 0.033260547 -0.036596525 0.15034425 -0.08272595 -0.0058486923 -0.072376356
0.030235315 0.13602561 -0.019271778 -0.03482223 0.09030322 0.01154304 -0.06452958 0.028097786
-0.031177709 0.017174091 0.059915327 -0.012711906 -0.1331473 -0.028376084 0.018144501 0.011442222
0.110616505 0.08016655 -0.0041921325 -0.02673913 -0.07398081 0.07676365 0.07890976 0.054052167
0.10294182 -0.114226304 0.025828486 -0.015097988 -0.008683 -0.046476174 0.031071052 -0.086417206
-0.052068632 0.10455999 0.03859243 -0.025531238 0.0499499 0.015938932 0.016045025 0.0394895
0.060525592 -0.027688872 0.026830928 -0.006757025 -0.06089778 -0.05603238 0.070047975 0.05591327
0.012131446 0.04170001 -0.039731283 0.056601655 -0.08677971 0.08148745 -0.0061384724 0.072133794

dense/MatMul_bias f4 [128]
00000000: 871c 15bc 1dc9 2ebc 125f e4bb a4bf c93c
00000010: 0291 91bd b612 a9b9 83fb fbbb e577 423c
00000020: a6aa d23c b0c7 69bd 28d8 6b3b 165b 93bc
00000030: e05f 1f3c 75bf 85bc d61e a83c 53b5 8a3c
00000040: 2a75 91bc fa14 a8bc d737 0dbc 29d7 c0ba
00000050: 983c 9abc 2b1a f9bb c034 f1ba 17b3 81bc
00000060: bc51 413c fd1a 81bc 499e 86bc 623e 75ba
00000070: cb7c 1ebc 123b 5c3b 018f a2bc 5451 223c
00000080: 548c f2bb d34e 3dbc 8589 1bbc 73b1 e6bc
00000090: fb4d 0c3d a42d 37bb 0903 0cbc 66b5 4fbc
000000a0: 3846 1abc fb1d f1bb 51d0 bf3b 2c51 a2bc
000000b0: 64f2 f03c f1c8 54bc 57e4 593d 0852 f836
000000c0: 6d71 f4bc e114 033c 5abf 883d 2c0c 6cbb
000000d0: e51b 22bc bd68 58bc 19c8 81bc 6776 d4bb
000000e0: c4aa 363c 4f98 84bc 2c28 713c 21d9 de3c
000000f0: 29eb 3ebc d483 643d b80b 5cbc ad24 b93c
00000100: 08f1 f3bb 8f10 8e3c 400c 823c 1c68 4cbc
00000110: 8390 80bb 3bad b6bb 26ec 843b 223e 4dbc
00000120: 7759 05bd 54d6 16bb 73f4 37bc 3c31 ac3c
00000130: 4420 a4bc 60a2 e4bb 20ef e43c 1ae1 cfbc
00000140: 97cf a4bc d794 19bc 8261 013d 8079 6abb
00000150: 3e59 7c3c 8c56 873d a1ca ef3c 3dd1 74bc
00000160: 59b3 9abc ec19 043d 3331 7dbc 6d01 b93c
00000170: 0236 133c 8d15 a63c 7d1f da3c 0b52 e4bc
00000180: 6d63 93bc 8565 1dbc 2a2a 2abc 50a2 80bc
00000190: dc66 4dbc e57d 003b e063 6cbb 430d 803d
000001a0: 7909 afbb b2e6 16bc 342d 01bd 38b6 6a3c
000001b0: 8b8d 26bc e450 45bc eaaa e83c 35d1 173d
000001c0: 3e8a 15bd 7d2a 99bc cea3 fd3c bc41 5abc
000001d0: 74ee afbb 7937 c0bc 9e78 dfbb e139 e03c
000001e0: 6456 443d 837b 46bc 65b6 c4bb df11 1cbd
000001f0: 40e9 283c 566d 8fbc 3f71 39bd 240e 0e3b
-0.00910104 -0.010668066 -0.006969341 0.024627514 -0.07107736 -0.00032248133 -0.0076898946 0.011869405
0.025716137 -0.057075202 0.0035986993 -0.01798777 0.009727448 -0.016326645 0.020522516 0.016932165
-0.017756063 -0.020517815 -0.00861927 -0.001471256 -0.018827721 -0.0076019964 -0.0018402562 -0.015832467
0.011799272 -0.01575994 -0.016432898 -0.0009355304 -0.009673308 0.0033604545 -0.01984358 0.009907085
-0.0074019823 -0.011554438 -0.009493236 -0.028160786 0.034254055 -0.0027950788 -0.0085456455 -0.012677526
-0.0094161555 -0.0073583103 0.0058536907 -0.019814096 0.029412456 -0.012987361 0.053196277 7.4005256e-06
-0.029839242 0.008000583 0.066771224 -0.0036017997 -0.009894346 -0.013208565 -0.015842484 -0.006483841
0.011149112 -0.016185908 0.01471905 0.027203145 -0.011652746 0.055789784 -0.013430528 0.022600496
-0.0074445046 0.01734188 0.015874982 -0.0124759935 -0.003923477 -0.00557485 0.0040564714 -0.012527021
-0.032556023 -0.0023015933 -0.011227715 0.02101957 -0.020034917 -0.0069773644 0.027946055 -0.025375891
-0.020118518 -0.009373865 0.03158713 -0.0035777986 0.015402136 0.066083044 0.029271426 -0.014942464
-0.018884348 0.032251284 -0.015453625 0.022583688 0.008985044 0.020273948 0.026626343 -0.027871152
-0.017991746 -0.009606724 -0.010386029 -0.015702397 -0.012536731 0.001960629 -0.0036070272 0.062525295
-0.0053417054 -0.0092102755 -0.03153725 0.014325671 -0.010165582 -0.012043212 0.02840181 0.03706475
-0.03650879 -0.018697018 0.030961897 -0.013321336 -0.005369002 -0.023463951 -0.0068197986 0.027371349
0.04793395 -0.012114408 -0.0060031884 -0.03810298 0.010309517 -0.01750819 -0.045274016 0.002167591

dense/kernel/transpose f4 [128, 576]
00000000: aaa5 a9bd 203f bbbd ee99 56bd b62c 02be
00000010: d6d5 2cbd dcb1 b7bc 09a7 db3d 790b 08bd
00000020: 0669 9a3c df2b 453d 1354 853d e1ca 953a
00000030: 9c2d bdbd 9328 29be 8d38 d23d 9a3f 9abc
00000040: 862a aebd 6a02 1e3e 3eb5 b23e 1f03 223c
00000050: b2aa 9fbd 31eb 643d 45c8 9b3c 0616 c2bd
00000060: 7e2d 253e 5702 80bc 421d ef3c f383 94bd
00000070: 19b4 c23d 92cc 9b3d 2a86 88bd db1d 69bd
00000080: e8a2 d6b9 61ec b5bd 9b33 453d 8cb1 a03d
00000090: f6e4 8d3b 5d1f 1e3d ac5b 2d3e 831a f5bd
000000a0: 0b04 263d 822a 84bd 98d0 1dbe 5af5 2b3d
000000b0: 3e1f 753d 9a4b 4dbc d360 c23d fd21 d03d
000000c0: ab2b 69bd a488 dd3d 196c 0c3e b95d 063e
000000d0: ef34 c9bb f6ea 303d 82eb 6ebc b058 713d
000000e0: 6602 043d bc5f 32bd c139 f43c e382 a73c
000000f0: f8a6 65bc b06e 3e3d a806 a5bd 0e36 e2bd
00000100: d931 93bd 0586 833d 52e0 863d ffe3 18be
00000110: 092c efbd ddd6 12be 133d 67bd b545 d0bd
00000120: e3a4 433d 4563 763e 5314 893d 5107 52bc
00000130: c672 26be d2b5 a2bd b09f 673d bf86 83bd
00000140: 8fcb 11be c4b2 423b f6cd c53d f483 b737
00000150: 8663 2cbd c01b 8f3d 4c0e 923c 09ff 07bc
00000160: ad2c 563d 815d efbd 022f 833d 922e 9d3d
00000170: e2e1 013e e4b7 8c3d 58bc 0f3e d994 6c3d
00000180: 1d6d 303e eb8e cf3d e333 533c 0479 683d
00000190: b746 933d cb59 2cbe 861b 4f3e 44b1 713c
000001a0: 7647 f13c 8a27 e23d 564c dbbd 16e1 77bb
000001b0: 45e2 9bbd 3812 40bd 2668 283e 9f15 82bb
000001c0: 7586 c13c c9f6 d1bc 7adc cdbd f4eb 973c
000001d0: f147 0d3d 3ab1 813d 9a09 b9bd cf2c 93bd
000001e0: e73b e7bd 768d 97bc 500b 453a 8315 a03d
000001f0: f6fe a73c f5a6 6e3d a711 6d3d 9eab ac3b
00000200: 2000 8bbd 60fc 203d 23b6 0bbe 3966 00bd
00000210: 76f7 6abc 5653 b9bc 9fb5 7abd 6da0 133d
00000220: 7b29 963c 3226 8f3d 0322 5c3d 4b52 bdbd
00000230: cd37 d2bc b811 0b3d e4ee 9f3d dede 04be
00000240: 5621 e83d 56bb 123e 9cf3 4ebe c8ec 973b
00000250: 0bee 07be ca1e c5bc 44b2 363c 93a0 eabd
00000260: b5d5 083c 04aa 01be e0d1 313e 45b4 eb3d
00000270: ecb6 cebc 775a 4ebd ca6f 5dbc ba75 a8bb
00000280: 9277 aa3d 27d3 173d 3d2e 7abd b8fd 4f3d
00000290: 776b ef3d 654f 4cbd cc9d 8ebd 7492 393d
000002a0: becf 02bd f65c a53d e402 86bc 46d8 273d
000002b0: 3161 1e3e 1b34 79bd fd08 4e3d b3f4 4abd
000002c0: f4ec 92bd c5fc 09be 04ca 14be 8113 523d
000002d0: 8702 ee3c f3f0 1f3d 043d 7dbd d141 0d3d
000002e0: e5e7 f5bb d72f 063e 7fdc 03bd 1d86 3abd
000002f0: 8b44 a6bc 3cc3 63bc 5798 10bd 64f8 cb3d
00000300: 2979 ac3d bffd 263c 5032 84bd 8876 893d
00000310: 4c76 b0bd db6a f2bc ed90 84bc 93d3 f6bc
00000320: 72a8 14bb 37a2 313e 234c 8c3d 118e 1fbd
00000330: 5bb1 1bbd 2dc9 0abe 3eb9 733c 6dbd afbd
00000340: f6b6 243c 8e5d c5bd 1f46 043e 9648 9bbd
00000350: 1226 7bbc 4a89 433d e604 c2bc 2c1e 67bc
00000360: 8f54 c63d f2ae db3b 5939 bdbd a4af 463d
00000370: a3bc 7ebb cfe6 523c b84f ab3d 85a6 213d
00000380: 2625 bfbd c580 403d f3ce 4dbc 10c3 83bc
00000390: e151 05be 2156 82bd fadf 393c b815 573d
000003a0: 410e 933b 9cd8 cebd 996c dcbd 53b9 36be
000003b0: 838b 363d 8a02 62bc c0ee 1b3d eefa f7bd
000003c0: 3ff7 4dbd 30f9 9fbc 5c55 853d fbb9 7e3d
000003d0: b5ee a7bd e031 053d 3127 33bc 0e2e f93a
000003e0: 3c1c 4f3c 762b b83c 8139 1e3b 8f01 73bc
000003f0: e0d3 413b a690 823d 9e23 bc3c aaed 6cbd
-0.08283551 -0.091428995 -0.052392893 -0.12712368 -0.042196117 -0.022423677 0.10725219 -0.033214066
0.018848907 0.04813754 0.065101765 0.001142826 -0.09237215 -0.16519384 0.102646925 -0.018829156
-0.085042045 0.15430608 0.34903902 0.009888439 -0.077962294 0.05588836 0.019016394 -0.09476857
0.16130635 -0.015626116 0.029188756 -0.0725173 0.09507007 0.07607378 -0.06666215 -0.056913238
-0.00040938635 -0.08882976 0.048144918 0.078463644 0.004330273 0.03860413 0.16929501 -0.11967947
0.0405312 -0.0645342 -0.15411603 0.041982032 0.059844248 -0.012530232 0.09491124 0.10162733
-0.05692641 0.10817078 0.13713111 0.1312169 -0.0061403434 0.043192826 -0.014582517 0.05892247
0.03222885 -0.04354833 0.029812695 0.020448154 -0.014016859 0.04649228 -0.0805791 -0.11045466
-0.07187242 0.064220466 0.065857545 -0.14930724 -0.11678321 -0.14339776 -0.05645473 -0.101695456
0.04776467 0.24061306 0.0669333 -0.012819127 -0.1625472 -0.07944836 0.056548774 -0.06422185
-0.14237808 0.0029708603 0.096584246 2.1876745e-05 -0.0420871 0.06987715 0.017829083 -0.008300551
0.0522887 -0.11687756 0.064054504 0.07674898 0.12683824 0.06871012 0.14036691 0.05775914
0.17229123 0.10134681 0.012890789 0.056756034 0.07191222 -0.16831128 0.20225343 0.014751736
0.02945302 0.11042698 -0.10707919 -0.003782337 -0.07611517 -0.046892375 0.1644598 -0.0039698626
0.023623684 -0.025630372 -0.10051818 0.018545128 0.034492437 0.063326314 -0.090350345 -0.07186281
-0.11290722 -0.018500071 0.00075166393 0.07816603 0.020507317 0.05826469 0.057878163 0.005269482
-0.06787133 0.039303184 -0.13643698 -0.031347487 -0.014341226 -0.022622745 -0.061208364 0.036041666
0.018330326 0.06989707 0.053743374 -0.09244212 -0.025661374 0.033952445 0.07809237 -0.12975642
0.11334483 0.14329275 -0.20210117 0.004636381 -0.132744 -0.024062533 0.0111509 -0.11456408
0.008351733 -0.12662512 0.17365217 0.11508993 -0.025233708 -0.050379243 -0.013515422 -0.005140987
0.083235875 0.037066605 -0.061079253 0.050779074 0.11690419 -0.049880404 -0.06963691 0.045305684
-0.0319364 0.080743715 -0.0163588 0.04097774 0.15466763 -0.060840707 0.05030154 -0.04954977
-0.071741015 -0.1347533 -0.14530188 0.05128813 0.02905394 0.039048146 -0.061825767 0.034486596
-0.0075044506 0.13104187 -0.032192703 -0.045538057 -0.020296356 -0.013901528 -0.035301533 0.09959486
0.08421547 0.010192334 -0.06454909 0.06712061 -0.08616313 -0.029591968 -0.016182387 -0.030130183
-0.002268341 0.17347036 0.068504594 -0.038953844 -0.038010936 -0.13553305 0.014875708 -0.08581052
0.010053387 -0.09636985 0.12917374 -0.07582204 -0.015328901 0.04773835 -0.023683976 -0.014106315
0.09684097 0.0067042047 -0.09239454 0.048507348 -0.003886976 0.012872412 0.083648145 0.039465446
-0.093332574 0.046997804 -0.012561548 -0.016084224 -0.13019516 -0.06364084 0.011344904 0.052510947
0.004487783 -0.10099909 -0.10762901 -0.17844133 0.044566642 -0.013794551 0.038069487 -0.12108408
-0.05028462 -0.019528002 0.06510422 0.062189084 -0.08199827 0.032518268 -0.010934637 0.0019010918
0.012641009 0.022481661 0.0024143162 -0.014831915 0.002957575 0.06375246 0.022966202 -0.05784384

dense_1/MatMul_bias f4 [100]
00000000: 1559 2fbc 0b3a 8ebc 096e 35ba 3652 11bd
00000010: 2841 3cbc 1fff 623c 89eb 063d 1c66 95bc
00000020: 5e88 da3b f108 e3bb 21fe 893c 8afc 93bc
00000030: 6442 eeba e305 10bc 43a7 d3bb aa67 153d
00000040: f244 4bbd 38ef 933c e330 bb3c 3819 3739
00000050: 00d8 8f3c a383 1f3d b354 10bd 3257 7b3c
00000060: 05f6 44bd 98e9 21bc 6e87 84bc 75f7 ad3c
00000070: 35f0 e03b c08f 74bc 3117 04bd cf15 cbbc
00000080: f21a adbc 3df8 26bb c80e 35b9 f07c 87bb
00000090: 419a 243c 7abb d1bc ffa8 4a3c 382a 14bd
000000a0: 53c8 9a3d 65ba 28bd ecef e03c a5c1 e5bc
000000b0: 8fef e23c 6959 ffbb d0d3 18bd e5d9 743c
000000c0: 83c2 3dbc 4c28 4f3d 34f1 65bc db79 193d
000000d0: 2fab efba 02e7 2d3c 05e1 b73d 0a90 eebb
000000e0: 7eb8 143d 725c 123d 66cd 90bc bd99 613b
000000f0: f2e6 d43c fbe7 16bc 4c00 0ebc 4fa9 03bd
00000100: 68d4 c6bb 0f7d 90bc 038a 3ebb 84cc 4d3d
00000110: d576 a9bb 0954 7ebb 9989 91bc 0219 d2bc
00000120: 11ce 4f37 7a1a e7bc a528 d63c 2e0c dfbb
00000130: d9d3 c03c 7570 5f3c 86a1 51bc b90c 733b
00000140: 96b1 b33c 2270 87bc 3114 23bd d7ca c2bc
00000150: b42b 08bd 2f86 c93b e3e0 7d3d 8633 163c
00000160: 77f9 993c c98d 41bd 9232 7a3c 3dd3 19bc
00000170: 637f 8cbb a643 923a b579 0b3d 8c6d 1a3d
00000180: 7bc4 09bd dd22 843d 4661 63bd cc6c e3bc
-0.010702391 -0.017361661 -0.00069209986 -0.035478793 -0.011490144 0.013854771 0.032939468 -0.018237166
0.0066690883 -0.006928556 0.01684481 -0.018064756 -0.0018177745 -0.008790466 -0.006459148 0.036475815
-0.0496263 0.018058404 0.02285046 0.00017461635 0.017559052 0.038943898 -0.035237025 0.015340613
-0.048086185 -0.009882353 -0.01617786 0.02123616 0.0068645724 -0.014926851 -0.03224868 -0.024790673
-0.021131013 -0.0025477551 -0.00017267012 -0.0041347668 0.010046543 -0.025602091 0.012369393 -0.036173075
0.0755774 -0.041193385 0.027458154 -0.028046438 0.027702121 -0.007792641 -0.037311375 0.014944528
-0.01158202 0.05057554 -0.014034558 0.037469726 -0.001828527 0.010614159 0.08978466 -0.0072803544
0.036308758 0.035732694 -0.017676067 0.003442391 0.02598903 -0.009210582 -0.008667063 -0.032143887
-0.0060678013 -0.017637758 -0.002907396 0.05024387 -0.0051716366 -0.0038807413 -0.017765807 -0.02564669
1.238614e-05 -0.028210867 0.026142428 -0.006806872 0.023538517 0.013637652 -0.012794858 0.003708644
0.021935266 -0.016532961 -0.039814178 -0.023778362 -0.033244804 0.006150029 0.061982047 0.009167558
0.018795712 -0.047254357 0.015270846 -0.009388742 -0.0042876466 0.0011159077 0.034051616 0.03770213
-0.033634644 0.06451962 -0.05551269 -0.02776184

dense_1/kernel/transpose f4 [100, 128]
00000000: 6202 3ebe ce45 c23d b2b4 cfbd ad15 8bbc
00000010: cbf2 d13d 557f 0c3e 7eb2 6abd 2e21 c8bd
00000020: c2d8 efbd ee35 05be 584e cdbb adb4 cebd
00000030: a8ff 86ba 103d f23c d407 cfbd 3044 05be
00000040: 49e1 5abd 57a3 bd3d 9240 bb3d 9a76 3d3e
00000050: 48f8 a1bd 2731 18be 7936 d7bc 4152 32be
00000060: ef51 b2bd dc45 babd c3cf 19be f211 f4bd
00000070: c482 57bc a521 033e 7301 c8bd 64e7 3dbe
00000080: e08e 94bc b47f 1fbe 7b94 4cbe 0a00 e43d
00000090: 09b2 043e 17df 8cbe 0c26 013e 5854 2ebe
000000a0: 5815 14be 8e6c f23d 913e 773d 0cfa 56be
000000b0: 16c1 8e3c 8d67 afbc 6217 1b3e 9fa3 c23d
000000c0: d470 1dbe 2ca1 d6bd f6e3 42be d3a9 1c3e
000000d0: cb2b 0cbe 279e f5bd e481 98bc a02f 2dbd
000000e0: 5871 b93d 1093 573c 0eaf 963d edd7 0b3d
000000f0: effe d03d 0caf 083e a703 2cbe 6ba3 f93c
00000100: afce 0ebe c224 f3bd 5834 2f3d 039f 063e
00000110: 2afa d83d a8f0 babd 5c7f 57be 92af 3dbe
00000120: d39f aebd 9ab6 4b3d 16f8 bbbb c80c 29be
00000130: ce93 06be 0f72 cc3d 3f8b 3c3e 90f9 96bd
00000140: d7ec 02be 5b44 37bc f744 c7bd 46fe 23be
00000150: 56d3 0fbd ef53 51bd 29f4 19be 4586 16be
00000160: 8834 823d f105 0b3e 5f63 1bbe e66e 1b3e
00000170: b86f a4bd b796 043d 4c9d b6bd 5c50 15bd
00000180: 31d1 0abe 0415 12be 4866 443d 365f 2f3c
00000190: ed74 943d d8f4 953d eb42 8c3d a141 183c
000001a0: bc60 e6bd 54db 563d 4200 653d 3ad7 413a
000001b0: b52b 3fbe ba46 163e 6b69 0b3e b3a9 99bd
000001c0: 1a10 a03d d6e4 c43d 5ba8 afbd 9e5b 02be
000001d0: fa73 a8bd 0488 f83c b806 b1bc 9d88 513e
000001e0: 14ee 3c3e 7859 4b3e e796 8f3d 672c 3dbe
000001f0: c583 8a3d 4341 e33d e3d6 7fbd f63b 03bc
00000200: 4c0d 6cbd a5dc 8cbd dbe0 e53c 4789 4cbd
00000210: e738 6a3a b2a1 4bbd 96e1 09be 5bf9 68bd
00000220: 0010 8f3d 3c00 1a3e 00bf 763e 7212 8bbe
00000230: 4b05 46bd c841 033e a32e 28bd d258 66bd
00000240: 3958 84be 7dc3 d43d a067 c5bd bd5e fabd
00000250: 68a5 863d 7436 d33c ba6c 173e 5100 91bd
00000260: bc4c a43c e8cd c2bb e7a2 aabd 6430 c93d
00000270: 4576 843d c8bd 1cbe 4bb7 22bc fe7a a4bd
00000280: 20ab bbbd b7bb ab3d c93f 273d a3ac fcbd
00000290: 82bf cd3d cb4c 93bd 751e 193e 440f 843c
000002a0: 561c bdbd 7caa dbbd 6cee 123d 37f4 26be
000002b0: 5900 a23d b74a 963d 5832 343e fd12 003d
000002c0: daba 91bd 1166 f83d fa37 35be 3f47 e23d
000002d0: 47bb 2fbc a3f3 523d ff1b 513d 9abb 45bd
000002e0: 5b9f 9dbd 26e4 043e 7ce7 09be 621c b2bd
000002f0: 911d b0bd a502 5a3e d3fb b23d 99ca 05be
00000300: 35c6 f1bd 8625 8cbd 5b47 37bd 1b25 933d
00000310: 659b 13bd fde4 92bd bd70 16bd 4d3e 78bd
00000320: 1b1a 9d3d a885 b3bc 434e 44bd 9622 5cbe
00000330: 8f75 9dbd 2b0f f83d b605 1abe ab78 10be
00000340: 61b4 1b3d 145b b1bd b426 cc3c fa31 84be
00000350: 97e6 233c 0cb6 12bd 66d9 323d 00d0 113e
00000360: 3837 00be 720e 4dbe 5c64 16bd 37b0 e53d
00000370: 3c40 c83d 0b0c 13be ebbb d4bd 599e 0a3e
00000380: c609 40bc dce1 c7bd e8d3 fa3d 601b b93d
00000390: 5ec1 3d3c 61f1 613c af51 d4bc cec7 0bbe
000003a0: 529c 6d3d 648b 0fbe 339b 1bbd 2665 87bd
000003b0: 79bb 283e 8da4 11be 889b 74bd d46e 413e
000003c0: 7252 533d 2fd8 0cbe 5994 f0bd 9bef 213e
000003d0: e4ea 973d 8f3f 873d 6fe7 f23d 2e8a ebbd
000003e0: bec6 dabd 8aad f4bb 2bee cabd 3b5e d0bc
000003f0: 25b9 2abd 2d8f d23d d1d0 5abd ad98 8bbd
-0.18555596 0.094859704 -0.10141887 -0.01697811 0.10251387 0.13720448 -0.05729913 -0.097719535
-0.11711265 -0.13008854 -0.006265443 -0.10093055 -0.001029958 0.029570132 -0.10108915 -0.13014293
-0.053437505 0.0925967 0.09143175 0.18502274 -0.07908684 -0.148625 -0.026271092 -0.1741419
-0.08707034 -0.09095356 -0.15020661 -0.11917485 -0.013153736 0.12805803 -0.097659014 -0.185453
-0.018134534 -0.15576059 -0.19978516 0.1113282 0.1295854 -0.27513954 0.1261217 -0.17024362
-0.14461267 0.118371114 0.060362402 -0.20993823 0.017426055 -0.021411682 0.15145639 0.095038645
-0.15375072 -0.1047996 -0.19032273 0.15299158 -0.1368858 -0.11993056 -0.018616624 -0.042281747
0.09054822 0.013157621 0.07357608 0.03414147 0.10204875 0.13348025 -0.16798268 0.030473432
-0.13946031 -0.11872245 0.04277453 0.13146596 0.1059459 -0.09127933 -0.21044677 -0.18524006
-0.08526578 0.04973469 -0.0057363613 -0.16508782 -0.1314232 0.099826925 0.18412493 -0.07371819
-0.1278566 -0.011185731 -0.09729951 -0.16014966 -0.035113655 -0.051105436 -0.15034546 -0.14699657
0.06357676 0.13576485 -0.15174626 0.15179023 -0.08029121 0.032370295 -0.08916721 -0.03645359
-0.13556363 -0.1426583 0.047949106 0.010703852 0.07248864 0.07322091 0.06848701 0.009292991
-0.11248919 0.05245526 0.05590845 0.0007394437 -0.18669017 0.14675418 0.13614433 -0.07503071
0.07815571 0.096139595 -0.08577033 -0.12730262 -0.08225246 0.030338295 -0.021609649 0.2046227
0.18450195 0.19858348 0.07011204 -0.1847397 0.06763414 0.11096432 -0.06246079 -0.008009901
-0.05762987 -0.06878022 0.028061321 -0.049935605 0.0008934871 -0.04971475 -0.1346496 -0.05687843
0.06985474 0.15039152 0.24096298 -0.2716251 -0.04834489 0.12818062 -0.0410601 -0.05623705
-0.2584856 0.10388849 -0.096389055 -0.12225101 0.065745175 0.025782801 0.1478757 -0.070801385
0.020056121 -0.005944956 -0.083318524 0.09823683 0.064678706 -0.15306771 -0.009931396 -0.080312714
-0.09163499 0.08385413 0.040832315 -0.12337615 0.10046293 -0.071923815 0.14953025 0.01612056
-0.0923392 -0.10725877 0.035871908 -0.16304098 0.079102226 0.073384695 0.1759733 0.03126811
-0.07115717 0.121288426 -0.17697135 0.11048745 -0.010725803 0.05150188 0.05105209 -0.048274614
-0.0769641 0.12977657 -0.1346721 -0.0869682 -0.08599389 0.21290071 0.08739438 -0.13065566
-0.11805383 -0.068430945 -0.044745784 0.07184812 -0.036036868 -0.07172582 -0.03672861 -0.06060629
0.07670995 -0.021914318 -0.0479262 -0.21497568 -0.07688438 0.12112268 -0.15041241 -0.14108531
0.03801382 -0.0865995 0.024920799 -0.2581938 0.010003707 -0.035818145 0.04366436 0.14239502
-0.12521064 -0.20025042 -0.036716804 0.11215251 0.09777877 -0.14360063 -0.10387405 0.13536967
-0.01172108 -0.09759876 0.12247449 0.090384245 0.011581747 0.013790459 -0.025917856 -0.13650438
0.058010407 -0.14018017 -0.037989806 -0.066110894 0.16477765 -0.14222927 -0.05971864 0.18889934
0.051592298 -0.13754342 -0.11747045 0.15814058 0.07417849 0.0660392 0.11860549 -0.11500965
-0.10682438 -0.0074669765 -0.09908708 -0.025435558 -0.041680474 0.10281215 -0.0534218 -0.0681623
